model_name,model,val_loss,pickle_path
CustomCNN,"CustomCNN(
  (conv_layers): Sequential(
    (0): Conv2d(3, 16, kernel_size=(3, 3), stride=(1, 1), padding=(1, 1))
    (1): ReLU()
    (2): MaxPool2d(kernel_size=2, stride=2, padding=0, dilation=1, ceil_mode=False)
    (3): Conv2d(16, 32, kernel_size=(3, 3), stride=(1, 1), padding=(1, 1))
    (4): ReLU()
    (5): MaxPool2d(kernel_size=2, stride=2, padding=0, dilation=1, ceil_mode=False)
    (6): Conv2d(32, 64, kernel_size=(3, 3), stride=(1, 1), padding=(1, 1))
    (7): ReLU()
    (8): MaxPool2d(kernel_size=2, stride=2, padding=0, dilation=1, ceil_mode=False)
  )
  (fc_layers): Sequential(
    (0): Linear(in_features=50176, out_features=128, bias=True)
    (1): ReLU()
    (2): Dropout(p=0.5, inplace=False)
    (3): Linear(in_features=128, out_features=10, bias=True)
  )
)",0.025179458,model_pickles/model_CustomCNN.pkl
Resnet,"ResNet(
  (conv1): Conv2d(3, 64, kernel_size=(7, 7), stride=(2, 2), padding=(3, 3), bias=False)
  (bn1): BatchNorm2d(64, eps=1e-05, momentum=0.1, affine=True, track_running_stats=True)
  (relu): ReLU(inplace=True)
  (maxpool): MaxPool2d(kernel_size=3, stride=2, padding=1, dilation=1, ceil_mode=False)
  (layer1): Sequential(
    (0): BasicBlock(
      (conv1): Conv2d(64, 64, kernel_size=(3, 3), stride=(1, 1), padding=(1, 1), bias=False)
      (bn1): BatchNorm2d(64, eps=1e-05, momentum=0.1, affine=True, track_running_stats=True)
      (relu): ReLU(inplace=True)
      (conv2): Conv2d(64, 64, kernel_size=(3, 3), stride=(1, 1), padding=(1, 1), bias=False)
      (bn2): BatchNorm2d(64, eps=1e-05, momentum=0.1, affine=True, track_running_stats=True)
    )
    (1): BasicBlock(
      (conv1): Conv2d(64, 64, kernel_size=(3, 3), stride=(1, 1), padding=(1, 1), bias=False)
      (bn1): BatchNorm2d(64, eps=1e-05, momentum=0.1, affine=True, track_running_stats=True)
      (relu): ReLU(inplace=True)
      (conv2): Conv2d(64, 64, kernel_size=(3, 3), stride=(1, 1), padding=(1, 1), bias=False)
      (bn2): BatchNorm2d(64, eps=1e-05, momentum=0.1, affine=True, track_running_stats=True)
    )
    (2): BasicBlock(
      (conv1): Conv2d(64, 64, kernel_size=(3, 3), stride=(1, 1), padding=(1, 1), bias=False)
      (bn1): BatchNorm2d(64, eps=1e-05, momentum=0.1, affine=True, track_running_stats=True)
      (relu): ReLU(inplace=True)
      (conv2): Conv2d(64, 64, kernel_size=(3, 3), stride=(1, 1), padding=(1, 1), bias=False)
      (bn2): BatchNorm2d(64, eps=1e-05, momentum=0.1, affine=True, track_running_stats=True)
    )
  )
  (layer2): Sequential(
    (0): BasicBlock(
      (conv1): Conv2d(64, 128, kernel_size=(3, 3), stride=(2, 2), padding=(1, 1), bias=False)
      (bn1): BatchNorm2d(128, eps=1e-05, momentum=0.1, affine=True, track_running_stats=True)
      (relu): ReLU(inplace=True)
      (conv2): Conv2d(128, 128, kernel_size=(3, 3), stride=(1, 1), padding=(1, 1), bias=False)
      (bn2): BatchNorm2d(128, eps=1e-05, momentum=0.1, affine=True, track_running_stats=True)
      (downsample): Sequential(
        (0): Conv2d(64, 128, kernel_size=(1, 1), stride=(2, 2), bias=False)
        (1): BatchNorm2d(128, eps=1e-05, momentum=0.1, affine=True, track_running_stats=True)
      )
    )
    (1): BasicBlock(
      (conv1): Conv2d(128, 128, kernel_size=(3, 3), stride=(1, 1), padding=(1, 1), bias=False)
      (bn1): BatchNorm2d(128, eps=1e-05, momentum=0.1, affine=True, track_running_stats=True)
      (relu): ReLU(inplace=True)
      (conv2): Conv2d(128, 128, kernel_size=(3, 3), stride=(1, 1), padding=(1, 1), bias=False)
      (bn2): BatchNorm2d(128, eps=1e-05, momentum=0.1, affine=True, track_running_stats=True)
    )
    (2): BasicBlock(
      (conv1): Conv2d(128, 128, kernel_size=(3, 3), stride=(1, 1), padding=(1, 1), bias=False)
      (bn1): BatchNorm2d(128, eps=1e-05, momentum=0.1, affine=True, track_running_stats=True)
      (relu): ReLU(inplace=True)
      (conv2): Conv2d(128, 128, kernel_size=(3, 3), stride=(1, 1), padding=(1, 1), bias=False)
      (bn2): BatchNorm2d(128, eps=1e-05, momentum=0.1, affine=True, track_running_stats=True)
    )
    (3): BasicBlock(
      (conv1): Conv2d(128, 128, kernel_size=(3, 3), stride=(1, 1), padding=(1, 1), bias=False)
      (bn1): BatchNorm2d(128, eps=1e-05, momentum=0.1, affine=True, track_running_stats=True)
      (relu): ReLU(inplace=True)
      (conv2): Conv2d(128, 128, kernel_size=(3, 3), stride=(1, 1), padding=(1, 1), bias=False)
      (bn2): BatchNorm2d(128, eps=1e-05, momentum=0.1, affine=True, track_running_stats=True)
    )
  )
  (layer3): Sequential(
    (0): BasicBlock(
      (conv1): Conv2d(128, 256, kernel_size=(3, 3), stride=(2, 2), padding=(1, 1), bias=False)
      (bn1): BatchNorm2d(256, eps=1e-05, momentum=0.1, affine=True, track_running_stats=True)
      (relu): ReLU(inplace=True)
      (conv2): Conv2d(256, 256, kernel_size=(3, 3), stride=(1, 1), padding=(1, 1), bias=False)
      (bn2): BatchNorm2d(256, eps=1e-05, momentum=0.1, affine=True, track_running_stats=True)
      (downsample): Sequential(
        (0): Conv2d(128, 256, kernel_size=(1, 1), stride=(2, 2), bias=False)
        (1): BatchNorm2d(256, eps=1e-05, momentum=0.1, affine=True, track_running_stats=True)
      )
    )
    (1): BasicBlock(
      (conv1): Conv2d(256, 256, kernel_size=(3, 3), stride=(1, 1), padding=(1, 1), bias=False)
      (bn1): BatchNorm2d(256, eps=1e-05, momentum=0.1, affine=True, track_running_stats=True)
      (relu): ReLU(inplace=True)
      (conv2): Conv2d(256, 256, kernel_size=(3, 3), stride=(1, 1), padding=(1, 1), bias=False)
      (bn2): BatchNorm2d(256, eps=1e-05, momentum=0.1, affine=True, track_running_stats=True)
    )
    (2): BasicBlock(
      (conv1): Conv2d(256, 256, kernel_size=(3, 3), stride=(1, 1), padding=(1, 1), bias=False)
      (bn1): BatchNorm2d(256, eps=1e-05, momentum=0.1, affine=True, track_running_stats=True)
      (relu): ReLU(inplace=True)
      (conv2): Conv2d(256, 256, kernel_size=(3, 3), stride=(1, 1), padding=(1, 1), bias=False)
      (bn2): BatchNorm2d(256, eps=1e-05, momentum=0.1, affine=True, track_running_stats=True)
    )
    (3): BasicBlock(
      (conv1): Conv2d(256, 256, kernel_size=(3, 3), stride=(1, 1), padding=(1, 1), bias=False)
      (bn1): BatchNorm2d(256, eps=1e-05, momentum=0.1, affine=True, track_running_stats=True)
      (relu): ReLU(inplace=True)
      (conv2): Conv2d(256, 256, kernel_size=(3, 3), stride=(1, 1), padding=(1, 1), bias=False)
      (bn2): BatchNorm2d(256, eps=1e-05, momentum=0.1, affine=True, track_running_stats=True)
    )
    (4): BasicBlock(
      (conv1): Conv2d(256, 256, kernel_size=(3, 3), stride=(1, 1), padding=(1, 1), bias=False)
      (bn1): BatchNorm2d(256, eps=1e-05, momentum=0.1, affine=True, track_running_stats=True)
      (relu): ReLU(inplace=True)
      (conv2): Conv2d(256, 256, kernel_size=(3, 3), stride=(1, 1), padding=(1, 1), bias=False)
      (bn2): BatchNorm2d(256, eps=1e-05, momentum=0.1, affine=True, track_running_stats=True)
    )
    (5): BasicBlock(
      (conv1): Conv2d(256, 256, kernel_size=(3, 3), stride=(1, 1), padding=(1, 1), bias=False)
      (bn1): BatchNorm2d(256, eps=1e-05, momentum=0.1, affine=True, track_running_stats=True)
      (relu): ReLU(inplace=True)
      (conv2): Conv2d(256, 256, kernel_size=(3, 3), stride=(1, 1), padding=(1, 1), bias=False)
      (bn2): BatchNorm2d(256, eps=1e-05, momentum=0.1, affine=True, track_running_stats=True)
    )
  )
  (layer4): Sequential(
    (0): BasicBlock(
      (conv1): Conv2d(256, 512, kernel_size=(3, 3), stride=(2, 2), padding=(1, 1), bias=False)
      (bn1): BatchNorm2d(512, eps=1e-05, momentum=0.1, affine=True, track_running_stats=True)
      (relu): ReLU(inplace=True)
      (conv2): Conv2d(512, 512, kernel_size=(3, 3), stride=(1, 1), padding=(1, 1), bias=False)
      (bn2): BatchNorm2d(512, eps=1e-05, momentum=0.1, affine=True, track_running_stats=True)
      (downsample): Sequential(
        (0): Conv2d(256, 512, kernel_size=(1, 1), stride=(2, 2), bias=False)
        (1): BatchNorm2d(512, eps=1e-05, momentum=0.1, affine=True, track_running_stats=True)
      )
    )
    (1): BasicBlock(
      (conv1): Conv2d(512, 512, kernel_size=(3, 3), stride=(1, 1), padding=(1, 1), bias=False)
      (bn1): BatchNorm2d(512, eps=1e-05, momentum=0.1, affine=True, track_running_stats=True)
      (relu): ReLU(inplace=True)
      (conv2): Conv2d(512, 512, kernel_size=(3, 3), stride=(1, 1), padding=(1, 1), bias=False)
      (bn2): BatchNorm2d(512, eps=1e-05, momentum=0.1, affine=True, track_running_stats=True)
    )
    (2): BasicBlock(
      (conv1): Conv2d(512, 512, kernel_size=(3, 3), stride=(1, 1), padding=(1, 1), bias=False)
      (bn1): BatchNorm2d(512, eps=1e-05, momentum=0.1, affine=True, track_running_stats=True)
      (relu): ReLU(inplace=True)
      (conv2): Conv2d(512, 512, kernel_size=(3, 3), stride=(1, 1), padding=(1, 1), bias=False)
      (bn2): BatchNorm2d(512, eps=1e-05, momentum=0.1, affine=True, track_running_stats=True)
    )
  )
  (avgpool): AdaptiveAvgPool2d(output_size=(1, 1))
  (fc): Linear(in_features=512, out_features=10, bias=True)
)",0.1386746038223687,model_pickles/model_Resnet.pkl
VIT,"ByobNet(
  (stem): ConvNormAct(
    (conv): Conv2d(3, 16, kernel_size=(3, 3), stride=(2, 2), padding=(1, 1), bias=False)
    (bn): BatchNormAct2d(
      16, eps=1e-05, momentum=0.1, affine=True, track_running_stats=True
      (drop): Identity()
      (act): SiLU(inplace=True)
    )
  )
  (stages): Sequential(
    (0): Sequential(
      (0): BottleneckBlock(
        (conv1_1x1): ConvNormAct(
          (conv): Conv2d(16, 64, kernel_size=(1, 1), stride=(1, 1), bias=False)
          (bn): BatchNormAct2d(
            64, eps=1e-05, momentum=0.1, affine=True, track_running_stats=True
            (drop): Identity()
            (act): SiLU(inplace=True)
          )
        )
        (conv2_kxk): ConvNormAct(
          (conv): Conv2d(64, 64, kernel_size=(3, 3), stride=(1, 1), padding=(1, 1), groups=64, bias=False)
          (bn): BatchNormAct2d(
            64, eps=1e-05, momentum=0.1, affine=True, track_running_stats=True
            (drop): Identity()
            (act): SiLU(inplace=True)
          )
        )
        (conv2b_kxk): Identity()
        (attn): Identity()
        (conv3_1x1): ConvNormAct(
          (conv): Conv2d(64, 32, kernel_size=(1, 1), stride=(1, 1), bias=False)
          (bn): BatchNormAct2d(
            32, eps=1e-05, momentum=0.1, affine=True, track_running_stats=True
            (drop): Identity()
            (act): Identity()
          )
        )
        (attn_last): Identity()
        (drop_path): Identity()
        (act): Identity()
      )
    )
    (1): Sequential(
      (0): BottleneckBlock(
        (conv1_1x1): ConvNormAct(
          (conv): Conv2d(32, 128, kernel_size=(1, 1), stride=(1, 1), bias=False)
          (bn): BatchNormAct2d(
            128, eps=1e-05, momentum=0.1, affine=True, track_running_stats=True
            (drop): Identity()
            (act): SiLU(inplace=True)
          )
        )
        (conv2_kxk): ConvNormAct(
          (conv): Conv2d(128, 128, kernel_size=(3, 3), stride=(2, 2), padding=(1, 1), groups=128, bias=False)
          (bn): BatchNormAct2d(
            128, eps=1e-05, momentum=0.1, affine=True, track_running_stats=True
            (drop): Identity()
            (act): SiLU(inplace=True)
          )
        )
        (conv2b_kxk): Identity()
        (attn): Identity()
        (conv3_1x1): ConvNormAct(
          (conv): Conv2d(128, 48, kernel_size=(1, 1), stride=(1, 1), bias=False)
          (bn): BatchNormAct2d(
            48, eps=1e-05, momentum=0.1, affine=True, track_running_stats=True
            (drop): Identity()
            (act): Identity()
          )
        )
        (attn_last): Identity()
        (drop_path): Identity()
        (act): Identity()
      )
      (1): BottleneckBlock(
        (shortcut): Identity()
        (conv1_1x1): ConvNormAct(
          (conv): Conv2d(48, 192, kernel_size=(1, 1), stride=(1, 1), bias=False)
          (bn): BatchNormAct2d(
            192, eps=1e-05, momentum=0.1, affine=True, track_running_stats=True
            (drop): Identity()
            (act): SiLU(inplace=True)
          )
        )
        (conv2_kxk): ConvNormAct(
          (conv): Conv2d(192, 192, kernel_size=(3, 3), stride=(1, 1), padding=(1, 1), groups=192, bias=False)
          (bn): BatchNormAct2d(
            192, eps=1e-05, momentum=0.1, affine=True, track_running_stats=True
            (drop): Identity()
            (act): SiLU(inplace=True)
          )
        )
        (conv2b_kxk): Identity()
        (attn): Identity()
        (conv3_1x1): ConvNormAct(
          (conv): Conv2d(192, 48, kernel_size=(1, 1), stride=(1, 1), bias=False)
          (bn): BatchNormAct2d(
            48, eps=1e-05, momentum=0.1, affine=True, track_running_stats=True
            (drop): Identity()
            (act): Identity()
          )
        )
        (attn_last): Identity()
        (drop_path): Identity()
        (act): Identity()
      )
      (2): BottleneckBlock(
        (shortcut): Identity()
        (conv1_1x1): ConvNormAct(
          (conv): Conv2d(48, 192, kernel_size=(1, 1), stride=(1, 1), bias=False)
          (bn): BatchNormAct2d(
            192, eps=1e-05, momentum=0.1, affine=True, track_running_stats=True
            (drop): Identity()
            (act): SiLU(inplace=True)
          )
        )
        (conv2_kxk): ConvNormAct(
          (conv): Conv2d(192, 192, kernel_size=(3, 3), stride=(1, 1), padding=(1, 1), groups=192, bias=False)
          (bn): BatchNormAct2d(
            192, eps=1e-05, momentum=0.1, affine=True, track_running_stats=True
            (drop): Identity()
            (act): SiLU(inplace=True)
          )
        )
        (conv2b_kxk): Identity()
        (attn): Identity()
        (conv3_1x1): ConvNormAct(
          (conv): Conv2d(192, 48, kernel_size=(1, 1), stride=(1, 1), bias=False)
          (bn): BatchNormAct2d(
            48, eps=1e-05, momentum=0.1, affine=True, track_running_stats=True
            (drop): Identity()
            (act): Identity()
          )
        )
        (attn_last): Identity()
        (drop_path): Identity()
        (act): Identity()
      )
    )
    (2): Sequential(
      (0): BottleneckBlock(
        (conv1_1x1): ConvNormAct(
          (conv): Conv2d(48, 192, kernel_size=(1, 1), stride=(1, 1), bias=False)
          (bn): BatchNormAct2d(
            192, eps=1e-05, momentum=0.1, affine=True, track_running_stats=True
            (drop): Identity()
            (act): SiLU(inplace=True)
          )
        )
        (conv2_kxk): ConvNormAct(
          (conv): Conv2d(192, 192, kernel_size=(3, 3), stride=(2, 2), padding=(1, 1), groups=192, bias=False)
          (bn): BatchNormAct2d(
            192, eps=1e-05, momentum=0.1, affine=True, track_running_stats=True
            (drop): Identity()
            (act): SiLU(inplace=True)
          )
        )
        (conv2b_kxk): Identity()
        (attn): Identity()
        (conv3_1x1): ConvNormAct(
          (conv): Conv2d(192, 64, kernel_size=(1, 1), stride=(1, 1), bias=False)
          (bn): BatchNormAct2d(
            64, eps=1e-05, momentum=0.1, affine=True, track_running_stats=True
            (drop): Identity()
            (act): Identity()
          )
        )
        (attn_last): Identity()
        (drop_path): Identity()
        (act): Identity()
      )
      (1): MobileVitBlock(
        (conv_kxk): ConvNormAct(
          (conv): Conv2d(64, 64, kernel_size=(3, 3), stride=(1, 1), padding=(1, 1), bias=False)
          (bn): BatchNormAct2d(
            64, eps=1e-05, momentum=0.1, affine=True, track_running_stats=True
            (drop): Identity()
            (act): SiLU(inplace=True)
          )
        )
        (conv_1x1): Conv2d(64, 96, kernel_size=(1, 1), stride=(1, 1), bias=False)
        (transformer): Sequential(
          (0): Block(
            (norm1): LayerNorm((96,), eps=1e-05, elementwise_affine=True)
            (attn): Attention(
              (qkv): Linear(in_features=96, out_features=288, bias=True)
              (q_norm): Identity()
              (k_norm): Identity()
              (attn_drop): Dropout(p=0.0, inplace=False)
              (proj): Linear(in_features=96, out_features=96, bias=True)
              (proj_drop): Dropout(p=0.0, inplace=False)
            )
            (ls1): Identity()
            (drop_path1): Identity()
            (norm2): LayerNorm((96,), eps=1e-05, elementwise_affine=True)
            (mlp): Mlp(
              (fc1): Linear(in_features=96, out_features=192, bias=True)
              (act): SiLU()
              (drop1): Dropout(p=0.0, inplace=False)
              (norm): Identity()
              (fc2): Linear(in_features=192, out_features=96, bias=True)
              (drop2): Dropout(p=0.0, inplace=False)
            )
            (ls2): Identity()
            (drop_path2): Identity()
          )
          (1): Block(
            (norm1): LayerNorm((96,), eps=1e-05, elementwise_affine=True)
            (attn): Attention(
              (qkv): Linear(in_features=96, out_features=288, bias=True)
              (q_norm): Identity()
              (k_norm): Identity()
              (attn_drop): Dropout(p=0.0, inplace=False)
              (proj): Linear(in_features=96, out_features=96, bias=True)
              (proj_drop): Dropout(p=0.0, inplace=False)
            )
            (ls1): Identity()
            (drop_path1): Identity()
            (norm2): LayerNorm((96,), eps=1e-05, elementwise_affine=True)
            (mlp): Mlp(
              (fc1): Linear(in_features=96, out_features=192, bias=True)
              (act): SiLU()
              (drop1): Dropout(p=0.0, inplace=False)
              (norm): Identity()
              (fc2): Linear(in_features=192, out_features=96, bias=True)
              (drop2): Dropout(p=0.0, inplace=False)
            )
            (ls2): Identity()
            (drop_path2): Identity()
          )
        )
        (norm): LayerNorm((96,), eps=1e-05, elementwise_affine=True)
        (conv_proj): ConvNormAct(
          (conv): Conv2d(96, 64, kernel_size=(1, 1), stride=(1, 1), bias=False)
          (bn): BatchNormAct2d(
            64, eps=1e-05, momentum=0.1, affine=True, track_running_stats=True
            (drop): Identity()
            (act): SiLU(inplace=True)
          )
        )
        (conv_fusion): ConvNormAct(
          (conv): Conv2d(128, 64, kernel_size=(3, 3), stride=(1, 1), padding=(1, 1), bias=False)
          (bn): BatchNormAct2d(
            64, eps=1e-05, momentum=0.1, affine=True, track_running_stats=True
            (drop): Identity()
            (act): SiLU(inplace=True)
          )
        )
      )
    )
    (3): Sequential(
      (0): BottleneckBlock(
        (conv1_1x1): ConvNormAct(
          (conv): Conv2d(64, 256, kernel_size=(1, 1), stride=(1, 1), bias=False)
          (bn): BatchNormAct2d(
            256, eps=1e-05, momentum=0.1, affine=True, track_running_stats=True
            (drop): Identity()
            (act): SiLU(inplace=True)
          )
        )
        (conv2_kxk): ConvNormAct(
          (conv): Conv2d(256, 256, kernel_size=(3, 3), stride=(2, 2), padding=(1, 1), groups=256, bias=False)
          (bn): BatchNormAct2d(
            256, eps=1e-05, momentum=0.1, affine=True, track_running_stats=True
            (drop): Identity()
            (act): SiLU(inplace=True)
          )
        )
        (conv2b_kxk): Identity()
        (attn): Identity()
        (conv3_1x1): ConvNormAct(
          (conv): Conv2d(256, 80, kernel_size=(1, 1), stride=(1, 1), bias=False)
          (bn): BatchNormAct2d(
            80, eps=1e-05, momentum=0.1, affine=True, track_running_stats=True
            (drop): Identity()
            (act): Identity()
          )
        )
        (attn_last): Identity()
        (drop_path): Identity()
        (act): Identity()
      )
      (1): MobileVitBlock(
        (conv_kxk): ConvNormAct(
          (conv): Conv2d(80, 80, kernel_size=(3, 3), stride=(1, 1), padding=(1, 1), bias=False)
          (bn): BatchNormAct2d(
            80, eps=1e-05, momentum=0.1, affine=True, track_running_stats=True
            (drop): Identity()
            (act): SiLU(inplace=True)
          )
        )
        (conv_1x1): Conv2d(80, 120, kernel_size=(1, 1), stride=(1, 1), bias=False)
        (transformer): Sequential(
          (0): Block(
            (norm1): LayerNorm((120,), eps=1e-05, elementwise_affine=True)
            (attn): Attention(
              (qkv): Linear(in_features=120, out_features=360, bias=True)
              (q_norm): Identity()
              (k_norm): Identity()
              (attn_drop): Dropout(p=0.0, inplace=False)
              (proj): Linear(in_features=120, out_features=120, bias=True)
              (proj_drop): Dropout(p=0.0, inplace=False)
            )
            (ls1): Identity()
            (drop_path1): Identity()
            (norm2): LayerNorm((120,), eps=1e-05, elementwise_affine=True)
            (mlp): Mlp(
              (fc1): Linear(in_features=120, out_features=240, bias=True)
              (act): SiLU()
              (drop1): Dropout(p=0.0, inplace=False)
              (norm): Identity()
              (fc2): Linear(in_features=240, out_features=120, bias=True)
              (drop2): Dropout(p=0.0, inplace=False)
            )
            (ls2): Identity()
            (drop_path2): Identity()
          )
          (1): Block(
            (norm1): LayerNorm((120,), eps=1e-05, elementwise_affine=True)
            (attn): Attention(
              (qkv): Linear(in_features=120, out_features=360, bias=True)
              (q_norm): Identity()
              (k_norm): Identity()
              (attn_drop): Dropout(p=0.0, inplace=False)
              (proj): Linear(in_features=120, out_features=120, bias=True)
              (proj_drop): Dropout(p=0.0, inplace=False)
            )
            (ls1): Identity()
            (drop_path1): Identity()
            (norm2): LayerNorm((120,), eps=1e-05, elementwise_affine=True)
            (mlp): Mlp(
              (fc1): Linear(in_features=120, out_features=240, bias=True)
              (act): SiLU()
              (drop1): Dropout(p=0.0, inplace=False)
              (norm): Identity()
              (fc2): Linear(in_features=240, out_features=120, bias=True)
              (drop2): Dropout(p=0.0, inplace=False)
            )
            (ls2): Identity()
            (drop_path2): Identity()
          )
          (2): Block(
            (norm1): LayerNorm((120,), eps=1e-05, elementwise_affine=True)
            (attn): Attention(
              (qkv): Linear(in_features=120, out_features=360, bias=True)
              (q_norm): Identity()
              (k_norm): Identity()
              (attn_drop): Dropout(p=0.0, inplace=False)
              (proj): Linear(in_features=120, out_features=120, bias=True)
              (proj_drop): Dropout(p=0.0, inplace=False)
            )
            (ls1): Identity()
            (drop_path1): Identity()
            (norm2): LayerNorm((120,), eps=1e-05, elementwise_affine=True)
            (mlp): Mlp(
              (fc1): Linear(in_features=120, out_features=240, bias=True)
              (act): SiLU()
              (drop1): Dropout(p=0.0, inplace=False)
              (norm): Identity()
              (fc2): Linear(in_features=240, out_features=120, bias=True)
              (drop2): Dropout(p=0.0, inplace=False)
            )
            (ls2): Identity()
            (drop_path2): Identity()
          )
          (3): Block(
            (norm1): LayerNorm((120,), eps=1e-05, elementwise_affine=True)
            (attn): Attention(
              (qkv): Linear(in_features=120, out_features=360, bias=True)
              (q_norm): Identity()
              (k_norm): Identity()
              (attn_drop): Dropout(p=0.0, inplace=False)
              (proj): Linear(in_features=120, out_features=120, bias=True)
              (proj_drop): Dropout(p=0.0, inplace=False)
            )
            (ls1): Identity()
            (drop_path1): Identity()
            (norm2): LayerNorm((120,), eps=1e-05, elementwise_affine=True)
            (mlp): Mlp(
              (fc1): Linear(in_features=120, out_features=240, bias=True)
              (act): SiLU()
              (drop1): Dropout(p=0.0, inplace=False)
              (norm): Identity()
              (fc2): Linear(in_features=240, out_features=120, bias=True)
              (drop2): Dropout(p=0.0, inplace=False)
            )
            (ls2): Identity()
            (drop_path2): Identity()
          )
        )
        (norm): LayerNorm((120,), eps=1e-05, elementwise_affine=True)
        (conv_proj): ConvNormAct(
          (conv): Conv2d(120, 80, kernel_size=(1, 1), stride=(1, 1), bias=False)
          (bn): BatchNormAct2d(
            80, eps=1e-05, momentum=0.1, affine=True, track_running_stats=True
            (drop): Identity()
            (act): SiLU(inplace=True)
          )
        )
        (conv_fusion): ConvNormAct(
          (conv): Conv2d(160, 80, kernel_size=(3, 3), stride=(1, 1), padding=(1, 1), bias=False)
          (bn): BatchNormAct2d(
            80, eps=1e-05, momentum=0.1, affine=True, track_running_stats=True
            (drop): Identity()
            (act): SiLU(inplace=True)
          )
        )
      )
    )
    (4): Sequential(
      (0): BottleneckBlock(
        (conv1_1x1): ConvNormAct(
          (conv): Conv2d(80, 320, kernel_size=(1, 1), stride=(1, 1), bias=False)
          (bn): BatchNormAct2d(
            320, eps=1e-05, momentum=0.1, affine=True, track_running_stats=True
            (drop): Identity()
            (act): SiLU(inplace=True)
          )
        )
        (conv2_kxk): ConvNormAct(
          (conv): Conv2d(320, 320, kernel_size=(3, 3), stride=(2, 2), padding=(1, 1), groups=320, bias=False)
          (bn): BatchNormAct2d(
            320, eps=1e-05, momentum=0.1, affine=True, track_running_stats=True
            (drop): Identity()
            (act): SiLU(inplace=True)
          )
        )
        (conv2b_kxk): Identity()
        (attn): Identity()
        (conv3_1x1): ConvNormAct(
          (conv): Conv2d(320, 96, kernel_size=(1, 1), stride=(1, 1), bias=False)
          (bn): BatchNormAct2d(
            96, eps=1e-05, momentum=0.1, affine=True, track_running_stats=True
            (drop): Identity()
            (act): Identity()
          )
        )
        (attn_last): Identity()
        (drop_path): Identity()
        (act): Identity()
      )
      (1): MobileVitBlock(
        (conv_kxk): ConvNormAct(
          (conv): Conv2d(96, 96, kernel_size=(3, 3), stride=(1, 1), padding=(1, 1), bias=False)
          (bn): BatchNormAct2d(
            96, eps=1e-05, momentum=0.1, affine=True, track_running_stats=True
            (drop): Identity()
            (act): SiLU(inplace=True)
          )
        )
        (conv_1x1): Conv2d(96, 144, kernel_size=(1, 1), stride=(1, 1), bias=False)
        (transformer): Sequential(
          (0): Block(
            (norm1): LayerNorm((144,), eps=1e-05, elementwise_affine=True)
            (attn): Attention(
              (qkv): Linear(in_features=144, out_features=432, bias=True)
              (q_norm): Identity()
              (k_norm): Identity()
              (attn_drop): Dropout(p=0.0, inplace=False)
              (proj): Linear(in_features=144, out_features=144, bias=True)
              (proj_drop): Dropout(p=0.0, inplace=False)
            )
            (ls1): Identity()
            (drop_path1): Identity()
            (norm2): LayerNorm((144,), eps=1e-05, elementwise_affine=True)
            (mlp): Mlp(
              (fc1): Linear(in_features=144, out_features=288, bias=True)
              (act): SiLU()
              (drop1): Dropout(p=0.0, inplace=False)
              (norm): Identity()
              (fc2): Linear(in_features=288, out_features=144, bias=True)
              (drop2): Dropout(p=0.0, inplace=False)
            )
            (ls2): Identity()
            (drop_path2): Identity()
          )
          (1): Block(
            (norm1): LayerNorm((144,), eps=1e-05, elementwise_affine=True)
            (attn): Attention(
              (qkv): Linear(in_features=144, out_features=432, bias=True)
              (q_norm): Identity()
              (k_norm): Identity()
              (attn_drop): Dropout(p=0.0, inplace=False)
              (proj): Linear(in_features=144, out_features=144, bias=True)
              (proj_drop): Dropout(p=0.0, inplace=False)
            )
            (ls1): Identity()
            (drop_path1): Identity()
            (norm2): LayerNorm((144,), eps=1e-05, elementwise_affine=True)
            (mlp): Mlp(
              (fc1): Linear(in_features=144, out_features=288, bias=True)
              (act): SiLU()
              (drop1): Dropout(p=0.0, inplace=False)
              (norm): Identity()
              (fc2): Linear(in_features=288, out_features=144, bias=True)
              (drop2): Dropout(p=0.0, inplace=False)
            )
            (ls2): Identity()
            (drop_path2): Identity()
          )
          (2): Block(
            (norm1): LayerNorm((144,), eps=1e-05, elementwise_affine=True)
            (attn): Attention(
              (qkv): Linear(in_features=144, out_features=432, bias=True)
              (q_norm): Identity()
              (k_norm): Identity()
              (attn_drop): Dropout(p=0.0, inplace=False)
              (proj): Linear(in_features=144, out_features=144, bias=True)
              (proj_drop): Dropout(p=0.0, inplace=False)
            )
            (ls1): Identity()
            (drop_path1): Identity()
            (norm2): LayerNorm((144,), eps=1e-05, elementwise_affine=True)
            (mlp): Mlp(
              (fc1): Linear(in_features=144, out_features=288, bias=True)
              (act): SiLU()
              (drop1): Dropout(p=0.0, inplace=False)
              (norm): Identity()
              (fc2): Linear(in_features=288, out_features=144, bias=True)
              (drop2): Dropout(p=0.0, inplace=False)
            )
            (ls2): Identity()
            (drop_path2): Identity()
          )
        )
        (norm): LayerNorm((144,), eps=1e-05, elementwise_affine=True)
        (conv_proj): ConvNormAct(
          (conv): Conv2d(144, 96, kernel_size=(1, 1), stride=(1, 1), bias=False)
          (bn): BatchNormAct2d(
            96, eps=1e-05, momentum=0.1, affine=True, track_running_stats=True
            (drop): Identity()
            (act): SiLU(inplace=True)
          )
        )
        (conv_fusion): ConvNormAct(
          (conv): Conv2d(192, 96, kernel_size=(3, 3), stride=(1, 1), padding=(1, 1), bias=False)
          (bn): BatchNormAct2d(
            96, eps=1e-05, momentum=0.1, affine=True, track_running_stats=True
            (drop): Identity()
            (act): SiLU(inplace=True)
          )
        )
      )
    )
  )
  (final_conv): ConvNormAct(
    (conv): Conv2d(96, 384, kernel_size=(1, 1), stride=(1, 1), bias=False)
    (bn): BatchNormAct2d(
      384, eps=1e-05, momentum=0.1, affine=True, track_running_stats=True
      (drop): Identity()
      (act): SiLU(inplace=True)
    )
  )
  (head): ClassifierHead(
    (global_pool): SelectAdaptivePool2d(pool_type=avg, flatten=Flatten(start_dim=1, end_dim=-1))
    (drop): Dropout(p=0.0, inplace=False)
    (fc): Linear(in_features=384, out_features=10, bias=True)
    (flatten): Identity()
  )
)",0.2117229344648361,model_pickles/model_VIT.pkl
EfficientNet,"EfficientNet(
  (conv_stem): Conv2d(3, 32, kernel_size=(3, 3), stride=(2, 2), padding=(1, 1), bias=False)
  (bn1): BatchNormAct2d(
    32, eps=1e-05, momentum=0.1, affine=True, track_running_stats=True
    (drop): Identity()
    (act): SiLU(inplace=True)
  )
  (blocks): Sequential(
    (0): Sequential(
      (0): DepthwiseSeparableConv(
        (conv_dw): Conv2d(32, 32, kernel_size=(3, 3), stride=(1, 1), padding=(1, 1), groups=32, bias=False)
        (bn1): BatchNormAct2d(
          32, eps=1e-05, momentum=0.1, affine=True, track_running_stats=True
          (drop): Identity()
          (act): SiLU(inplace=True)
        )
        (se): SqueezeExcite(
          (conv_reduce): Conv2d(32, 8, kernel_size=(1, 1), stride=(1, 1))
          (act1): SiLU(inplace=True)
          (conv_expand): Conv2d(8, 32, kernel_size=(1, 1), stride=(1, 1))
          (gate): Sigmoid()
        )
        (conv_pw): Conv2d(32, 16, kernel_size=(1, 1), stride=(1, 1), bias=False)
        (bn2): BatchNormAct2d(
          16, eps=1e-05, momentum=0.1, affine=True, track_running_stats=True
          (drop): Identity()
          (act): Identity()
        )
        (drop_path): Identity()
      )
    )
    (1): Sequential(
      (0): InvertedResidual(
        (conv_pw): Conv2d(16, 96, kernel_size=(1, 1), stride=(1, 1), bias=False)
        (bn1): BatchNormAct2d(
          96, eps=1e-05, momentum=0.1, affine=True, track_running_stats=True
          (drop): Identity()
          (act): SiLU(inplace=True)
        )
        (conv_dw): Conv2d(96, 96, kernel_size=(3, 3), stride=(2, 2), padding=(1, 1), groups=96, bias=False)
        (bn2): BatchNormAct2d(
          96, eps=1e-05, momentum=0.1, affine=True, track_running_stats=True
          (drop): Identity()
          (act): SiLU(inplace=True)
        )
        (se): SqueezeExcite(
          (conv_reduce): Conv2d(96, 4, kernel_size=(1, 1), stride=(1, 1))
          (act1): SiLU(inplace=True)
          (conv_expand): Conv2d(4, 96, kernel_size=(1, 1), stride=(1, 1))
          (gate): Sigmoid()
        )
        (conv_pwl): Conv2d(96, 24, kernel_size=(1, 1), stride=(1, 1), bias=False)
        (bn3): BatchNormAct2d(
          24, eps=1e-05, momentum=0.1, affine=True, track_running_stats=True
          (drop): Identity()
          (act): Identity()
        )
        (drop_path): Identity()
      )
      (1): InvertedResidual(
        (conv_pw): Conv2d(24, 144, kernel_size=(1, 1), stride=(1, 1), bias=False)
        (bn1): BatchNormAct2d(
          144, eps=1e-05, momentum=0.1, affine=True, track_running_stats=True
          (drop): Identity()
          (act): SiLU(inplace=True)
        )
        (conv_dw): Conv2d(144, 144, kernel_size=(3, 3), stride=(1, 1), padding=(1, 1), groups=144, bias=False)
        (bn2): BatchNormAct2d(
          144, eps=1e-05, momentum=0.1, affine=True, track_running_stats=True
          (drop): Identity()
          (act): SiLU(inplace=True)
        )
        (se): SqueezeExcite(
          (conv_reduce): Conv2d(144, 6, kernel_size=(1, 1), stride=(1, 1))
          (act1): SiLU(inplace=True)
          (conv_expand): Conv2d(6, 144, kernel_size=(1, 1), stride=(1, 1))
          (gate): Sigmoid()
        )
        (conv_pwl): Conv2d(144, 24, kernel_size=(1, 1), stride=(1, 1), bias=False)
        (bn3): BatchNormAct2d(
          24, eps=1e-05, momentum=0.1, affine=True, track_running_stats=True
          (drop): Identity()
          (act): Identity()
        )
        (drop_path): Identity()
      )
    )
    (2): Sequential(
      (0): InvertedResidual(
        (conv_pw): Conv2d(24, 144, kernel_size=(1, 1), stride=(1, 1), bias=False)
        (bn1): BatchNormAct2d(
          144, eps=1e-05, momentum=0.1, affine=True, track_running_stats=True
          (drop): Identity()
          (act): SiLU(inplace=True)
        )
        (conv_dw): Conv2d(144, 144, kernel_size=(5, 5), stride=(2, 2), padding=(2, 2), groups=144, bias=False)
        (bn2): BatchNormAct2d(
          144, eps=1e-05, momentum=0.1, affine=True, track_running_stats=True
          (drop): Identity()
          (act): SiLU(inplace=True)
        )
        (se): SqueezeExcite(
          (conv_reduce): Conv2d(144, 6, kernel_size=(1, 1), stride=(1, 1))
          (act1): SiLU(inplace=True)
          (conv_expand): Conv2d(6, 144, kernel_size=(1, 1), stride=(1, 1))
          (gate): Sigmoid()
        )
        (conv_pwl): Conv2d(144, 40, kernel_size=(1, 1), stride=(1, 1), bias=False)
        (bn3): BatchNormAct2d(
          40, eps=1e-05, momentum=0.1, affine=True, track_running_stats=True
          (drop): Identity()
          (act): Identity()
        )
        (drop_path): Identity()
      )
      (1): InvertedResidual(
        (conv_pw): Conv2d(40, 240, kernel_size=(1, 1), stride=(1, 1), bias=False)
        (bn1): BatchNormAct2d(
          240, eps=1e-05, momentum=0.1, affine=True, track_running_stats=True
          (drop): Identity()
          (act): SiLU(inplace=True)
        )
        (conv_dw): Conv2d(240, 240, kernel_size=(5, 5), stride=(1, 1), padding=(2, 2), groups=240, bias=False)
        (bn2): BatchNormAct2d(
          240, eps=1e-05, momentum=0.1, affine=True, track_running_stats=True
          (drop): Identity()
          (act): SiLU(inplace=True)
        )
        (se): SqueezeExcite(
          (conv_reduce): Conv2d(240, 10, kernel_size=(1, 1), stride=(1, 1))
          (act1): SiLU(inplace=True)
          (conv_expand): Conv2d(10, 240, kernel_size=(1, 1), stride=(1, 1))
          (gate): Sigmoid()
        )
        (conv_pwl): Conv2d(240, 40, kernel_size=(1, 1), stride=(1, 1), bias=False)
        (bn3): BatchNormAct2d(
          40, eps=1e-05, momentum=0.1, affine=True, track_running_stats=True
          (drop): Identity()
          (act): Identity()
        )
        (drop_path): Identity()
      )
    )
    (3): Sequential(
      (0): InvertedResidual(
        (conv_pw): Conv2d(40, 240, kernel_size=(1, 1), stride=(1, 1), bias=False)
        (bn1): BatchNormAct2d(
          240, eps=1e-05, momentum=0.1, affine=True, track_running_stats=True
          (drop): Identity()
          (act): SiLU(inplace=True)
        )
        (conv_dw): Conv2d(240, 240, kernel_size=(3, 3), stride=(2, 2), padding=(1, 1), groups=240, bias=False)
        (bn2): BatchNormAct2d(
          240, eps=1e-05, momentum=0.1, affine=True, track_running_stats=True
          (drop): Identity()
          (act): SiLU(inplace=True)
        )
        (se): SqueezeExcite(
          (conv_reduce): Conv2d(240, 10, kernel_size=(1, 1), stride=(1, 1))
          (act1): SiLU(inplace=True)
          (conv_expand): Conv2d(10, 240, kernel_size=(1, 1), stride=(1, 1))
          (gate): Sigmoid()
        )
        (conv_pwl): Conv2d(240, 80, kernel_size=(1, 1), stride=(1, 1), bias=False)
        (bn3): BatchNormAct2d(
          80, eps=1e-05, momentum=0.1, affine=True, track_running_stats=True
          (drop): Identity()
          (act): Identity()
        )
        (drop_path): Identity()
      )
      (1): InvertedResidual(
        (conv_pw): Conv2d(80, 480, kernel_size=(1, 1), stride=(1, 1), bias=False)
        (bn1): BatchNormAct2d(
          480, eps=1e-05, momentum=0.1, affine=True, track_running_stats=True
          (drop): Identity()
          (act): SiLU(inplace=True)
        )
        (conv_dw): Conv2d(480, 480, kernel_size=(3, 3), stride=(1, 1), padding=(1, 1), groups=480, bias=False)
        (bn2): BatchNormAct2d(
          480, eps=1e-05, momentum=0.1, affine=True, track_running_stats=True
          (drop): Identity()
          (act): SiLU(inplace=True)
        )
        (se): SqueezeExcite(
          (conv_reduce): Conv2d(480, 20, kernel_size=(1, 1), stride=(1, 1))
          (act1): SiLU(inplace=True)
          (conv_expand): Conv2d(20, 480, kernel_size=(1, 1), stride=(1, 1))
          (gate): Sigmoid()
        )
        (conv_pwl): Conv2d(480, 80, kernel_size=(1, 1), stride=(1, 1), bias=False)
        (bn3): BatchNormAct2d(
          80, eps=1e-05, momentum=0.1, affine=True, track_running_stats=True
          (drop): Identity()
          (act): Identity()
        )
        (drop_path): Identity()
      )
      (2): InvertedResidual(
        (conv_pw): Conv2d(80, 480, kernel_size=(1, 1), stride=(1, 1), bias=False)
        (bn1): BatchNormAct2d(
          480, eps=1e-05, momentum=0.1, affine=True, track_running_stats=True
          (drop): Identity()
          (act): SiLU(inplace=True)
        )
        (conv_dw): Conv2d(480, 480, kernel_size=(3, 3), stride=(1, 1), padding=(1, 1), groups=480, bias=False)
        (bn2): BatchNormAct2d(
          480, eps=1e-05, momentum=0.1, affine=True, track_running_stats=True
          (drop): Identity()
          (act): SiLU(inplace=True)
        )
        (se): SqueezeExcite(
          (conv_reduce): Conv2d(480, 20, kernel_size=(1, 1), stride=(1, 1))
          (act1): SiLU(inplace=True)
          (conv_expand): Conv2d(20, 480, kernel_size=(1, 1), stride=(1, 1))
          (gate): Sigmoid()
        )
        (conv_pwl): Conv2d(480, 80, kernel_size=(1, 1), stride=(1, 1), bias=False)
        (bn3): BatchNormAct2d(
          80, eps=1e-05, momentum=0.1, affine=True, track_running_stats=True
          (drop): Identity()
          (act): Identity()
        )
        (drop_path): Identity()
      )
    )
    (4): Sequential(
      (0): InvertedResidual(
        (conv_pw): Conv2d(80, 480, kernel_size=(1, 1), stride=(1, 1), bias=False)
        (bn1): BatchNormAct2d(
          480, eps=1e-05, momentum=0.1, affine=True, track_running_stats=True
          (drop): Identity()
          (act): SiLU(inplace=True)
        )
        (conv_dw): Conv2d(480, 480, kernel_size=(5, 5), stride=(1, 1), padding=(2, 2), groups=480, bias=False)
        (bn2): BatchNormAct2d(
          480, eps=1e-05, momentum=0.1, affine=True, track_running_stats=True
          (drop): Identity()
          (act): SiLU(inplace=True)
        )
        (se): SqueezeExcite(
          (conv_reduce): Conv2d(480, 20, kernel_size=(1, 1), stride=(1, 1))
          (act1): SiLU(inplace=True)
          (conv_expand): Conv2d(20, 480, kernel_size=(1, 1), stride=(1, 1))
          (gate): Sigmoid()
        )
        (conv_pwl): Conv2d(480, 112, kernel_size=(1, 1), stride=(1, 1), bias=False)
        (bn3): BatchNormAct2d(
          112, eps=1e-05, momentum=0.1, affine=True, track_running_stats=True
          (drop): Identity()
          (act): Identity()
        )
        (drop_path): Identity()
      )
      (1): InvertedResidual(
        (conv_pw): Conv2d(112, 672, kernel_size=(1, 1), stride=(1, 1), bias=False)
        (bn1): BatchNormAct2d(
          672, eps=1e-05, momentum=0.1, affine=True, track_running_stats=True
          (drop): Identity()
          (act): SiLU(inplace=True)
        )
        (conv_dw): Conv2d(672, 672, kernel_size=(5, 5), stride=(1, 1), padding=(2, 2), groups=672, bias=False)
        (bn2): BatchNormAct2d(
          672, eps=1e-05, momentum=0.1, affine=True, track_running_stats=True
          (drop): Identity()
          (act): SiLU(inplace=True)
        )
        (se): SqueezeExcite(
          (conv_reduce): Conv2d(672, 28, kernel_size=(1, 1), stride=(1, 1))
          (act1): SiLU(inplace=True)
          (conv_expand): Conv2d(28, 672, kernel_size=(1, 1), stride=(1, 1))
          (gate): Sigmoid()
        )
        (conv_pwl): Conv2d(672, 112, kernel_size=(1, 1), stride=(1, 1), bias=False)
        (bn3): BatchNormAct2d(
          112, eps=1e-05, momentum=0.1, affine=True, track_running_stats=True
          (drop): Identity()
          (act): Identity()
        )
        (drop_path): Identity()
      )
      (2): InvertedResidual(
        (conv_pw): Conv2d(112, 672, kernel_size=(1, 1), stride=(1, 1), bias=False)
        (bn1): BatchNormAct2d(
          672, eps=1e-05, momentum=0.1, affine=True, track_running_stats=True
          (drop): Identity()
          (act): SiLU(inplace=True)
        )
        (conv_dw): Conv2d(672, 672, kernel_size=(5, 5), stride=(1, 1), padding=(2, 2), groups=672, bias=False)
        (bn2): BatchNormAct2d(
          672, eps=1e-05, momentum=0.1, affine=True, track_running_stats=True
          (drop): Identity()
          (act): SiLU(inplace=True)
        )
        (se): SqueezeExcite(
          (conv_reduce): Conv2d(672, 28, kernel_size=(1, 1), stride=(1, 1))
          (act1): SiLU(inplace=True)
          (conv_expand): Conv2d(28, 672, kernel_size=(1, 1), stride=(1, 1))
          (gate): Sigmoid()
        )
        (conv_pwl): Conv2d(672, 112, kernel_size=(1, 1), stride=(1, 1), bias=False)
        (bn3): BatchNormAct2d(
          112, eps=1e-05, momentum=0.1, affine=True, track_running_stats=True
          (drop): Identity()
          (act): Identity()
        )
        (drop_path): Identity()
      )
    )
    (5): Sequential(
      (0): InvertedResidual(
        (conv_pw): Conv2d(112, 672, kernel_size=(1, 1), stride=(1, 1), bias=False)
        (bn1): BatchNormAct2d(
          672, eps=1e-05, momentum=0.1, affine=True, track_running_stats=True
          (drop): Identity()
          (act): SiLU(inplace=True)
        )
        (conv_dw): Conv2d(672, 672, kernel_size=(5, 5), stride=(2, 2), padding=(2, 2), groups=672, bias=False)
        (bn2): BatchNormAct2d(
          672, eps=1e-05, momentum=0.1, affine=True, track_running_stats=True
          (drop): Identity()
          (act): SiLU(inplace=True)
        )
        (se): SqueezeExcite(
          (conv_reduce): Conv2d(672, 28, kernel_size=(1, 1), stride=(1, 1))
          (act1): SiLU(inplace=True)
          (conv_expand): Conv2d(28, 672, kernel_size=(1, 1), stride=(1, 1))
          (gate): Sigmoid()
        )
        (conv_pwl): Conv2d(672, 192, kernel_size=(1, 1), stride=(1, 1), bias=False)
        (bn3): BatchNormAct2d(
          192, eps=1e-05, momentum=0.1, affine=True, track_running_stats=True
          (drop): Identity()
          (act): Identity()
        )
        (drop_path): Identity()
      )
      (1): InvertedResidual(
        (conv_pw): Conv2d(192, 1152, kernel_size=(1, 1), stride=(1, 1), bias=False)
        (bn1): BatchNormAct2d(
          1152, eps=1e-05, momentum=0.1, affine=True, track_running_stats=True
          (drop): Identity()
          (act): SiLU(inplace=True)
        )
        (conv_dw): Conv2d(1152, 1152, kernel_size=(5, 5), stride=(1, 1), padding=(2, 2), groups=1152, bias=False)
        (bn2): BatchNormAct2d(
          1152, eps=1e-05, momentum=0.1, affine=True, track_running_stats=True
          (drop): Identity()
          (act): SiLU(inplace=True)
        )
        (se): SqueezeExcite(
          (conv_reduce): Conv2d(1152, 48, kernel_size=(1, 1), stride=(1, 1))
          (act1): SiLU(inplace=True)
          (conv_expand): Conv2d(48, 1152, kernel_size=(1, 1), stride=(1, 1))
          (gate): Sigmoid()
        )
        (conv_pwl): Conv2d(1152, 192, kernel_size=(1, 1), stride=(1, 1), bias=False)
        (bn3): BatchNormAct2d(
          192, eps=1e-05, momentum=0.1, affine=True, track_running_stats=True
          (drop): Identity()
          (act): Identity()
        )
        (drop_path): Identity()
      )
      (2): InvertedResidual(
        (conv_pw): Conv2d(192, 1152, kernel_size=(1, 1), stride=(1, 1), bias=False)
        (bn1): BatchNormAct2d(
          1152, eps=1e-05, momentum=0.1, affine=True, track_running_stats=True
          (drop): Identity()
          (act): SiLU(inplace=True)
        )
        (conv_dw): Conv2d(1152, 1152, kernel_size=(5, 5), stride=(1, 1), padding=(2, 2), groups=1152, bias=False)
        (bn2): BatchNormAct2d(
          1152, eps=1e-05, momentum=0.1, affine=True, track_running_stats=True
          (drop): Identity()
          (act): SiLU(inplace=True)
        )
        (se): SqueezeExcite(
          (conv_reduce): Conv2d(1152, 48, kernel_size=(1, 1), stride=(1, 1))
          (act1): SiLU(inplace=True)
          (conv_expand): Conv2d(48, 1152, kernel_size=(1, 1), stride=(1, 1))
          (gate): Sigmoid()
        )
        (conv_pwl): Conv2d(1152, 192, kernel_size=(1, 1), stride=(1, 1), bias=False)
        (bn3): BatchNormAct2d(
          192, eps=1e-05, momentum=0.1, affine=True, track_running_stats=True
          (drop): Identity()
          (act): Identity()
        )
        (drop_path): Identity()
      )
      (3): InvertedResidual(
        (conv_pw): Conv2d(192, 1152, kernel_size=(1, 1), stride=(1, 1), bias=False)
        (bn1): BatchNormAct2d(
          1152, eps=1e-05, momentum=0.1, affine=True, track_running_stats=True
          (drop): Identity()
          (act): SiLU(inplace=True)
        )
        (conv_dw): Conv2d(1152, 1152, kernel_size=(5, 5), stride=(1, 1), padding=(2, 2), groups=1152, bias=False)
        (bn2): BatchNormAct2d(
          1152, eps=1e-05, momentum=0.1, affine=True, track_running_stats=True
          (drop): Identity()
          (act): SiLU(inplace=True)
        )
        (se): SqueezeExcite(
          (conv_reduce): Conv2d(1152, 48, kernel_size=(1, 1), stride=(1, 1))
          (act1): SiLU(inplace=True)
          (conv_expand): Conv2d(48, 1152, kernel_size=(1, 1), stride=(1, 1))
          (gate): Sigmoid()
        )
        (conv_pwl): Conv2d(1152, 192, kernel_size=(1, 1), stride=(1, 1), bias=False)
        (bn3): BatchNormAct2d(
          192, eps=1e-05, momentum=0.1, affine=True, track_running_stats=True
          (drop): Identity()
          (act): Identity()
        )
        (drop_path): Identity()
      )
    )
    (6): Sequential(
      (0): InvertedResidual(
        (conv_pw): Conv2d(192, 1152, kernel_size=(1, 1), stride=(1, 1), bias=False)
        (bn1): BatchNormAct2d(
          1152, eps=1e-05, momentum=0.1, affine=True, track_running_stats=True
          (drop): Identity()
          (act): SiLU(inplace=True)
        )
        (conv_dw): Conv2d(1152, 1152, kernel_size=(3, 3), stride=(1, 1), padding=(1, 1), groups=1152, bias=False)
        (bn2): BatchNormAct2d(
          1152, eps=1e-05, momentum=0.1, affine=True, track_running_stats=True
          (drop): Identity()
          (act): SiLU(inplace=True)
        )
        (se): SqueezeExcite(
          (conv_reduce): Conv2d(1152, 48, kernel_size=(1, 1), stride=(1, 1))
          (act1): SiLU(inplace=True)
          (conv_expand): Conv2d(48, 1152, kernel_size=(1, 1), stride=(1, 1))
          (gate): Sigmoid()
        )
        (conv_pwl): Conv2d(1152, 320, kernel_size=(1, 1), stride=(1, 1), bias=False)
        (bn3): BatchNormAct2d(
          320, eps=1e-05, momentum=0.1, affine=True, track_running_stats=True
          (drop): Identity()
          (act): Identity()
        )
        (drop_path): Identity()
      )
    )
  )
  (conv_head): Conv2d(320, 1280, kernel_size=(1, 1), stride=(1, 1), bias=False)
  (bn2): BatchNormAct2d(
    1280, eps=1e-05, momentum=0.1, affine=True, track_running_stats=True
    (drop): Identity()
    (act): SiLU(inplace=True)
  )
  (global_pool): SelectAdaptivePool2d(pool_type=avg, flatten=Flatten(start_dim=1, end_dim=-1))
  (classifier): Linear(in_features=1280, out_features=10, bias=True)
)",0.14862784854892,model_pickles/model_EfficientNet.pkl
